…
Saved -> results/preprocessed_data.csv
[Step 1 done in 0.4s]

============================================================
STEP 2: LSTM RSRP PREDICTION (STAGE 1)
============================================================
Train / Test split : 8240 / 2061 samples
LSTM train shape : X(8140, 100, 1)  y(8140,)

LSTM Model Summary:
Model: "sequential"
+--------------------------------------------------------------------------+
| Layer (type)                    | Output Shape           |       Param # |
|---------------------------------+------------------------+---------------|
| lstm (LSTM)                     | (None, 100, 120)       |        58,560 |
|---------------------------------+------------------------+---------------|
| dropout (Dropout)               | (None, 100, 120)       |             0 |
|---------------------------------+------------------------+---------------|
| lstm_1 (LSTM)                   | (None, 100, 50)        |        34,200 |
|---------------------------------+------------------------+---------------|
| dropout_1 (Dropout)             | (None, 100, 50)        |             0 |
|---------------------------------+------------------------+---------------|
| lstm_2 (LSTM)                   | (None, 100, 50)        |        20,200 |
|---------------------------------+------------------------+---------------|
| dropout_2 (Dropout)             | (None, 100, 50)        |             0 |
|---------------------------------+------------------------+---------------|
| lstm_3 (LSTM)                   | (None, 50)             |        20,200 |
|---------------------------------+------------------------+---------------|
| dropout_3 (Dropout)             | (None, 50)             |             0 |
|---------------------------------+------------------------+---------------|
| dense (Dense)                   | (None, 1)              |            51 |
+--------------------------------------------------------------------------+
 Total params: 133,211 (520.36 KB)
 Trainable params: 133,211 (520.36 KB)
 Non-trainable params: 0 (0.00 B)


Training stopped at epoch 20/100
Best val_loss : 0.001393

LSTM Test MAE  : 1.4427 dBm
LSTM Test RMSE : 2.7585 dBm
Saved -> results/lstm_model.keras
Saved -> results/lstm_training_loss.png, results/lstm_rsrp_prediction.png
…
